chrome-debug-profile/optimization_guide_model_store/9/E6DC4029A1E4B4C1/49C5E1F05CF6404D/model.tflite (tflite, 30288 bytes, 5 tensors)

arith.constant1 f4 [128]
0	0xc0f8653e	-7.7623587
1	0xc0ce2505	-6.442019
2	0xbf0e6bc7	-0.55633205
3	0xc0c48e19	-6.142346
4	0xc07ec685	-3.9808667
5	0xbf3542dd	-0.7080515
6	0xc0e14a1b	-7.040296
7	0xc09d9b6a	-4.9252214
8	0xc17e00dd	-15.875211
9	0xc12d646f	-10.83702
10	0xc119dc61	-9.616303
11	0xbea9d0ed	-0.3316721
12	0xbfd1384c	-1.6345305
13	0xc1839e50	-16.452301
14	0xc0a4718d	-5.138861
15	0xc064bd5f	-3.5740583
16	0xc20c8725	-35.131977
17	0xc0fbdf2e	-7.8709936
18	0xbde41c4e	-0.11138211
19	0xbe49ea1b	-0.1971821
20	0xc13cf79e	-11.810453
21	0xbfcb0542	-1.586098
22	0xc0ed1aa1	-7.4095006
23	0xc07298e5	-3.790582
24	0xbf1189b7	-0.5685076
25	0xbfe9df50	-1.8271275
26	0xc0664f39	-3.5985854
27	0xbee4634a	-0.44607002
28	0xc1295e3d	-10.585507
29	0xbeecd3a0	-0.46255207
30	0xbe991b5a	-0.2990368
31	0xbf206063	-0.62647074
32	0xc08a0c40	-4.3139954
33	0xbe6e2c82	-0.23259166
34	0xbf113140	-0.56715775
35	0xbfab8826	-1.3400924
36	0xc0a6a261	-5.2073216
37	0xbe8309d0	-0.25593424
38	0xc03e2fae	-2.9716601
39	0xc020a348	-2.509966
40	0xc0298958	-2.6490078
41	0xc0c7276c	-6.2235622
42	0xc011cdd9	-2.278189
43	0xc09795e5	-4.7370477
44	0xc0b1408d	-5.5391297
45	0xbf0b9be0	-0.5453472
46	0xc1047fa3	-8.281161
47	0xbfe27382	-1.76915
48	0xc0478ea3	-3.1180809
49	0xc03efb66	-2.9840941
50	0xbe804945	-0.250559
51	0xc0c10f40	-6.0331116
52	0xbfab21fa	-1.3369744
53	0xc093c1d9	-4.617413
54	0xbe89ac03	-0.26889047
55	0xc1304145	-11.015935
56	0xbf704cf6	-0.93867433
57	0xbf9624e3	-1.1730007
58	0xbfd1c8c0	-1.6389389
59	0xc19a6c98	-19.303024
60	0xc028981d	-2.6342843
61	0xbe756802	-0.23965457
62	0xc0b98df2	-5.7985773
63	0xc101519a	-8.082422
64	0xbe910b40	-0.28328896
65	0xc0d92297	-6.7854724
66	0xc09019bb	-4.503141
67	0xc1812cf1	-16.146944
68	0xc108aa56	-8.541586
69	0xbe5b5c58	-0.21421945
70	0xc0e594da	-7.1744204
71	0xbdfdcc60	-0.12392497
72	0xc0475b88	-3.1149616
73	0xc14a90b2	-12.660326
74	0xc092d881	-4.5889287
75	0xbeb75011	-0.35803273
76	0xc10dfb5f	-8.87387
77	0xc1244fdd	-10.269498
78	0xbe145f05	-0.14489372
79	0xbdceecdf	-0.10103773
80	0xbe953b9f	-0.2914705
81	0xbfb7c6bf	-1.4357527
82	0xbfdac9db	-1.7092851
83	0xc0406eb4	-3.0067568
84	0xbe710815	-0.2353824
85	0xbf1c53e7	-0.61065525
86	0xbf73f96d	-0.9530247
87	0xc0f7cd5b	-7.743818
88	0xbf063c4f	-0.52435774
89	0xc0c2c748	-6.0868263
90	0xc117751f	-9.466094
91	0xc02f7658	-2.7415981
92	0xc04633fb	-3.0969226
93	0xc1320953	-11.127276
94	0x3e68076a	0.22659078
95	0xc11b6c9c	-9.714016
96	0xc186e8a5	-16.863596
97	0xbe9671bf	-0.29383656
98	0xbe48947a	-0.1958789
99	0xc206406d	-33.562916
100	0xc103b51c	-8.231716
101	0xbd63aa4a	-0.055582322
102	0xc09ef883	-4.967836
103	0xc01694ee	-2.35284
104	0xc03cb6a1	-2.9486468
105	0xbdf976dd	-0.121808745
106	0xbe83cff5	-0.25744596
107	0xc0ee2fbe	-7.443328
108	0xc21ac287	-38.68997
109	0xc1c3022a	-24.376057
110	0xc1861665	-16.760935
111	0xbee0b535	-0.4388825
112	0xc05895a6	-3.3841338
113	0xc1043d58	-8.2649765
114	0xc14d645a	-12.837
115	0xc09805d9	-4.750714
116	0xc100900d	-8.035169
117	0xbe8fc4d7	-0.28079864
118	0xc0e08a4d	-7.0168824
119	0xbe24a890	-0.16079926
120	0xc0909150	-4.5177383
121	0xbe21683c	-0.15762419
122	0xbe97b497	-0.29629967
123	0xbed56a1c	-0.41682518
124	0xc14f7a74	-12.967396
125	0xc1882bd2	-17.021397
126	0xbe8ba6e8	-0.27275777
127	0xbe69c043	-0.22827248

arith.constant2 f4 [64]
0	0xc11eec53	-9.932696
1	0xc00ec4f6	-2.2307715
2	0xc0ac89cc	-5.391821
3	0xc182f0f5	-16.367655
4	0xc09046bd	-4.508635
5	0xc20c2395	-35.034748
6	0xc08e979d	-4.4560075
7	0xc1bf3a57	-23.903486
8	0xc0c87634	-6.264429
9	0xc0aa04dd	-5.3130937
10	0xc110afd3	-9.042926
11	0xc14597d0	-12.349564
12	0xbf1c99b6	-0.61172044
13	0xc231a0d6	-44.407066
14	0xbf764841	-0.96204
15	0xc1be0b06	-23.755383
16	0xc2292ef8	-42.295868
17	0xc16fe43e	-14.993223
18	0xc0ad1133	-5.4083495
19	0xbfe1c2a3	-1.7637523
20	0xc23ec82c	-47.69548
21	0xc19f6510	-19.924347
22	0xbfee2024	-1.8603559
23	0xc1903bde	-18.029232
24	0xc0eee807	-7.4658237
25	0xc0b67f18	-5.7030144
26	0xc12ec6d1	-10.923539
27	0xbe9fbed1	-0.3120027
28	0xc1ed386a	-29.652546
29	0xbf0e2e54	-0.5553944
30	0xc0a10e0f	-5.032966
31	0xc18ddbff	-17.73242
32	0xbf8ba70a	-1.0910351
33	0xbf576abf	-0.84147257
34	0xc1d54060	-26.656433
35	0xbf5a24c5	-0.85212356
36	0xc163ace6	-14.229712
37	0xc1ce9293	-25.82157
38	0xc0fd791a	-7.921033
39	0xc042a99b	-3.041602
40	0xc2127dc7	-36.62283
41	0xbfcf43e4	-1.6192594
42	0xc17fe4f9	-15.993402
43	0xc1dc2b90	-27.52127
44	0xbf53da97	-0.82755417
45	0xc21d4656	-39.318687
46	0xbfc8d13e	-1.5688856
47	0xc0870a2b	-4.219991
48	0xbeb0a745	-0.34502617
49	0xc0890161	-4.2814183
50	0xc14366fe	-12.212645
51	0xbfdc9ad8	-1.7234755
52	0xbf064139	-0.5244327
53	0xbf56f533	-0.83967894
54	0x3fa37d4c	1.2772613
55	0xc07bdb33	-3.9352539
56	0xc0a5f5bf	-5.1862483
57	0xbfa79efc	-1.3095393
58	0xc2354019	-45.312595
59	0xbf7c39c8	-0.9852567
60	0xc00a666b	-2.162501
61	0xc185904a	-16.695454
62	0xc0f58554	-7.6725254
63	0xc1d8a9e1	-27.082949

arith.constant27 f4 [1, 64]
0	0x3dbef4e1	0.09324051
1	0xbd7e741a	-0.06212244
2	0xbeb5a51a	-0.35477525
3	0xbc912b7f	-0.017720936
4	0xbf42f073	-0.76148146
5	0x3ecfd7cf	0.40594336
6	0x3eabd83a	0.33563405
7	0x3eac039f	0.33596513
8	0xbe1d3873	-0.15353565
9	0x3d6b0427	0.057377007
10	0x3d8bc46d	0.068245746
11	0xbcce90c5	-0.025215516
12	0xba653c83	-0.00087446737
13	0x3e8f12b2	0.2794395
14	0xbd573cdc	-0.052548274
15	0xbcd62e46	-0.026145112
16	0x3e99babb	0.30025277
17	0x3db39f38	0.08770603
18	0xbcfac168	-0.030609801
19	0x3d75b18f	0.059983786
20	0x3e834355	0.25637308
21	0x3e6fca7d	0.23417087
22	0x3e2ca15a	0.16858426
23	0x3da10f8d	0.07864294
24	0xbd1a1bf0	-0.0376243
25	0xbeb70f73	-0.35753974
26	0xbdae08b8	-0.08497757
27	0xbcfba4b3	-0.030718183
28	0x3d888d2e	0.06667553
29	0xbd148e70	-0.03626865
30	0x3c723aaf	0.014784499
31	0x3d9a5215	0.07535187
32	0xbcd51e0f	-0.02601531
33	0xbd405757	-0.046958294
34	0x3e6abc4e	0.22923395
35	0xbfc22192	-1.5166495
36	0xbd8322bb	-0.06403109
37	0x3daeaf42	0.085295215
38	0x3ce09a42	0.027417306
39	0x3d2270ec	0.039658472
40	0x3e712323	0.2354856
41	0x3ab4c570	0.0013791751
42	0x3d61e7f9	0.055152867
43	0x3e491ee8	0.19640696
44	0xbda9f423	-0.082985185
45	0x3e7f1616	0.24910769
46	0xbd67c0f4	-0.0565805
47	0x3bae11a0	0.0053121597
48	0x3b7b40fa	0.003833829
49	0xbf1dffd5	-0.61718494
50	0x3e362452	0.17787293
51	0xbe9da895	-0.3079268
52	0xbf8eeffe	-1.116699
53	0x3dcf538b	0.101233564
54	0xbe68bcb2	-0.22728232
55	0x3ea6be96	0.3256728
56	0x3e08cd17	0.13359486
57	0xbca2ecc5	-0.019888291
58	0x3ebe06c9	0.37114552
59	0x3e472187	0.19446383
60	0xbe1670cd	-0.14691468
61	0x3f01dd2d	0.5072811
62	0x3e824ac2	0.2544766
63	0x3e090438	0.13380516

tfl.pseudo_qconst i1 [64, 128]
0	0x04	4
1	0x33	51
2	0xfc	-4
3	0xfe	-2
4	0x11	17
5	0x0a	10
6	0xf4	-12
7	0x07	7
8	0xfb	-5
9	0x31	49
10	0x75	117
11	0xff	-1
12	0xf9	-7
13	0x62	98
14	0xfb	-5
15	0xf5	-11
16	0xd6	-42
17	0x08	8
18	0x05	5
19	0x06	6
20	0xf8	-8
21	0xf1	-15
22	0x00	0
23	0xbb	-69
24	0xf5	-11
25	0xf7	-9
26	0xfb	-5
27	0xf9	-7
28	0xed	-19
29	0xfb	-5
30	0xfd	-3
31	0xfd	-3
32	0xfe	-2
33	0xfe	-2
34	0x06	6
35	0xe8	-24
36	0xea	-22
37	0xf7	-9
38	0x01	1
39	0xfb	-5
40	0x04	4
41	0xd9	-39
42	0x02	2
43	0x9f	-97
44	0xfa	-6
45	0xee	-18
46	0x9f	-97
47	0xfd	-3
48	0x03	3
49	0xff	-1
50	0x07	7
51	0xf0	-16
52	0x03	3
53	0x0d	13
54	0xf3	-13
55	0xfd	-3
56	0x08	8
57	0xf4	-12
58	0xfe	-2
59	0xeb	-21
60	0x05	5
61	0x07	7
62	0x00	0
63	0xdb	-37
64	0xf9	-7
65	0xb3	-77
66	0x78	120
67	0xed	-19
68	0xfe	-2
69	0xf5	-11
70	0xf6	-10
71	0xf5	-11
72	0x01	1
73	0xd5	-43
74	0xdd	-35
75	0x08	8
76	0xf7	-9
77	0xd1	-47
78	0x06	6
79	0x09	9
80	0x02	2
81	0xfe	-2
82	0xf1	-15
83	0x81	-127
84	0x07	7
85	0xef	-17
86	0x24	36
87	0x1b	27
88	0xf8	-8
89	0xfc	-4
90	0xde	-34
91	0xfb	-5
92	0xff	-1
93	0x11	17
94	0xe4	-28
95	0x1f	31
96	0xac	-84
97	0x04	4
98	0xff	-1
99	0xf4	-12
100	0x0f	15
101	0xfe	-2
102	0xf7	-9
103	0xbc	-68
104	0xf9	-7
105	0x05	5
106	0x03	3
107	0xf9	-7
108	0xd1	-47
109	0xee	-18
110	0xfe	-2
111	0xff	-1
112	0xfd	-3
113	0xf6	-10
114	0xde	-34
115	0x05	5
116	0xfd	-3
117	0xf6	-10
118	0xe8	-24
119	0xfa	-6
120	0xf0	-16
121	0xfb	-5
122	0x01	1
123	0xf9	-7
124	0x1d	29
125	0xf5	-11
126	0xfe	-2
127	0x04	4
128	0xd5	-43
129	0xf7	-9
130	0x08	8
131	0xfa	-6
132	0xfb	-5
133	0xf0	-16
134	0xd7	-41
135	0xce	-50
136	0xd9	-39
137	0xea	-22
138	0x8a	-118
139	0x0e	14
140	0x09	9
141	0x1f	31
142	0xec	-20
143	0x95	-107
144	0xde	-34
145	0xc2	-62
146	0x0f	15
147	0xf4	-12
148	0x00	0
149	0xf7	-9
150	0xe2	-30
151	0xea	-22
152	0x07	7
153	0xf6	-10
154	0xff	-1
155	0x02	2
156	0xa0	-96
157	0x0b	11
158	0xef	-17
159	0xfd	-3
160	0xc7	-57
161	0xf7	-9
162	0x0e	14
163	0xb6	-74
164	0xea	-22
165	0x0a	10
166	0xd8	-40
167	0xdd	-35
168	0xd2	-46
169	0x09	9
170	0x01	1
171	0x00	0
172	0xf0	-16
173	0xf1	-15
174	0xff	-1
175	0xf7	-9
176	0xf2	-14
177	0xe0	-32
178	0x0b	11
179	0xe6	-26
180	0xed	-19
181	0x20	32
182	0xe9	-23
183	0xe1	-31
184	0xe0	-32
185	0xd6	-42
186	0xfb	-5
187	0xd5	-43
188	0x0b	11
189	0x15	21
190	0x40	64
191	0xef	-17
192	0x11	17
193	0x20	32
194	0xc0	-64
195	0x04	4
196	0x20	32
197	0x16	22
198	0xe4	-28
199	0x16	22
200	0xed	-19
201	0xd5	-43
202	0xf7	-9
203	0xf1	-15
204	0xca	-54
205	0xe4	-28
206	0x0d	13
207	0xff	-1
208	0x00	0
209	0x06	6
210	0xf0	-16
211	0xcf	-49
212	0xef	-17
213	0x81	-127
214	0x0b	11
215	0xfa	-6
216	0x00	0
217	0x13	19
218	0x07	7
219	0x15	21
220	0xd7	-41
221	0xf8	-8
222	0xce	-50
223	0xc8	-56
224	0xde	-34
225	0xf3	-13
226	0xf9	-7
227	0x22	34
228	0xe4	-28
229	0x12	18
230	0xbe	-66
231	0xfa	-6
232	0x0e	14
233	0x17	23
234	0x09	9
235	0xe0	-32
236	0x16	22
237	0x07	7
238	0xf5	-11
239	0x0a	10
240	0xd9	-39
241	0xe7	-25
242	0xf7	-9
243	0xe8	-24
244	0xdd	-35
245	0x03	3
246	0xdb	-37
247	0x02	2
248	0x02	2
249	0xfe	-2
250	0xee	-18
251	0xfe	-2
252	0xd9	-39
253	0x07	7
254	0x11	17
255	0x0a	10

tfl.pseudo_qconst1 i1 [128, 16]
0	0x78	120
1	0x48	72
2	0x6f	111
3	0x26	38
4	0x7c	124
5	0x7f	127
6	0x30	48
7	0x44	68
8	0x17	23
9	0x1f	31
10	0xd4	-44
11	0xcb	-53
12	0xfe	-2
13	0xbb	-69
14	0xd9	-39
15	0xfe	-2
16	0x5d	93
17	0x59	89
18	0x41	65
19	0x25	37
20	0x59	89
21	0x7f	127
22	0xc7	-57
23	0x3b	59
24	0x0b	11
25	0x0f	15
26	0x10	16
27	0x19	25
28	0x04	4
29	0x09	9
30	0xfb	-5
31	0xfc	-4
32	0xf2	-14
33	0x15	21
34	0x00	0
35	0x0a	10
36	0x19	25
37	0x3b	59
38	0x0b	11
39	0x18	24
40	0xc8	-56
41	0x10	16
42	0xc1	-63
43	0x9c	-100
44	0xed	-19
45	0xd8	-40
46	0x81	-127
47	0xfd	-3
48	0x30	48
49	0x59	89
50	0x39	57
51	0x18	24
52	0x4c	76
53	0x7f	127
54	0x17	23
55	0x3f	63
56	0x23	35
57	0xd9	-39
58	0x14	20
59	0xf5	-11
60	0x00	0
61	0xb8	-72
62	0xad	-83
63	0xff	-1
64	0x26	38
65	0x6b	107
66	0x33	51
67	0x29	41
68	0x4a	74
69	0x7f	127
70	0x3d	61
71	0x3e	62
72	0x17	23
73	0xe7	-25
74	0xc4	-60
75	0xb7	-73
76	0x01	1
77	0x03	3
78	0x14	20
79	0x05	5
80	0x10	16
81	0x13	19
82	0xf3	-13
83	0x11	17
84	0x1e	30
85	0x23	35
86	0x1a	26
87	0xfe	-2
88	0x12	18
89	0xff	-1
90	0x04	4
91	0x81	-127
92	0xf7	-9
93	0xba	-70
94	0xe7	-25
95	0xf7	-9
96	0x40	64
97	0x44	68
98	0x42	66
99	0x03	3
100	0x6a	106
101	0x7f	127
102	0xf6	-10
103	0x42	66
104	0xfe	-2
105	0x03	3
106	0xfe	-2
107	0xf7	-9
108	0xfd	-3
109	0xe6	-26
110	0xf1	-15
111	0x04	4
112	0x26	38
113	0x66	102
114	0x27	39
115	0x1a	26
116	0x39	57
117	0x7f	127
118	0x08	8
119	0x32	50
120	0x24	36
121	0xdd	-35
122	0xe6	-26
123	0xe6	-26
124	0x00	0
125	0xa7	-89
126	0xcd	-51
127	0xf9	-7
128	0x6c	108
129	0x57	87
130	0x5d	93
131	0x3c	60
132	0x7c	124
133	0x7f	127
134	0x42	66
135	0x4d	77
136	0x30	48
137	0x11	17
138	0x2f	47
139	0xfb	-5
140	0x01	1
141	0xed	-19
142	0xda	-38
143	0xff	-1
144	0x69	105
145	0x48	72
146	0x29	41
147	0x43	67
148	0x73	115
149	0x67	103
150	0x32	50
151	0x43	67
152	0x36	54
153	0x21	33
154	0xb2	-78
155	0x81	-127
156	0x01	1
157	0xd4	-44
158	0xea	-22
159	0xfe	-2
160	0x55	85
161	0x61	97
162	0x38	56
163	0x42	66
164	0x70	112
165	0x7f	127
166	0x1f	31
167	0x4b	75
168	0x35	53
169	0x03	3
170	0x1b	27
171	0xdf	-33
172	0xfe	-2
173	0x02	2
174	0x2a	42
175	0x00	0
176	0x23	35
177	0x44	68
178	0x10	16
179	0x25	37
180	0x43	67
181	0x7a	122
182	0x03	3
183	0x22	34
184	0x23	35
185	0xde	-34
186	0x81	-127
187	0x9c	-100
188	0xda	-38
189	0xd4	-44
190	0xab	-85
191	0x14	20
192	0x2b	43
193	0x20	32
194	0x29	41
195	0xf6	-10
196	0x3c	60
197	0x51	81
198	0xca	-54
199	0x08	8
200	0xf7	-9
201	0xe4	-28
202	0xb2	-78
203	0x81	-127
204	0xf6	-10
205	0x91	-111
206	0x11	17
207	0x01	1
208	0x69	105
209	0x7f	127
210	0x73	115
211	0x2b	43
212	0x4a	74
213	0x59	89
214	0xce	-50
215	0x2c	44
216	0xd7	-41
217	0xf9	-7
218	0x5d	93
219	0x59	89
220	0xff	-1
221	0x0e	14
222	0xe3	-29
223	0x00	0
224	0x4d	77
225	0x5a	90
226	0x48	72
227	0x18	24
228	0x70	112
229	0x7f	127
230	0xf7	-9
231	0x42	66
232	0x0b	11
233	0x0c	12
234	0xe2	-30
235	0xcd	-51
236	0xfd	-3
237	0xcc	-52
238	0xfe	-2
239	0xff	-1
240	0x33	51
241	0x3c	60
242	0x33	51
243	0x16	22
244	0x6f	111
245	0x7f	127
246	0x60	96
247	0x33	51
248	0xfc	-4
249	0xff	-1
250	0xb7	-73
251	0xeb	-21
252	0xfc	-4
253	0x39	57
254	0x24	36
255	0xfa	-6
